training: 6090 , validation: 8120
2030
Training and Testing my model
1.2.0
Net(
  (conv1): Conv2d(4, 128, kernel_size=(2, 2), stride=(2, 2))
  (pool): MaxPool2d(kernel_size=2, stride=2, padding=0, dilation=1, ceil_mode=False)
  (conv2): Conv2d(128, 256, kernel_size=(4, 4), stride=(2, 2), padding=(1, 1))
  (conv2_bn): BatchNorm2d(256, eps=1e-05, momentum=0.1, affine=True, track_running_stats=True)
  (fc1): Linear(in_features=262144, out_features=4096, bias=True)
  (fc1_bn): BatchNorm1d(4096, eps=1e-05, momentum=0.1, affine=True, track_running_stats=True)
  (fc2): Linear(in_features=4096, out_features=29, bias=True)
)
12
torch.Size([128, 4, 2, 2])
[1,     1] loss: 0.725, total correct: 0
[1,  1201] loss: 0.195, total correct: 1554
training: 7786 , validation: 10381
2596
Training and Testing my model
1.2.0
Net(
  (conv1): Conv2d(4, 128, kernel_size=(2, 2), stride=(2, 2))
  (pool): MaxPool2d(kernel_size=2, stride=2, padding=0, dilation=1, ceil_mode=False)
  (conv2): Conv2d(128, 256, kernel_size=(4, 4), stride=(2, 2), padding=(1, 1))
  (conv2_bn): BatchNorm2d(256, eps=1e-05, momentum=0.1, affine=True, track_running_stats=True)
  (fc1): Linear(in_features=262144, out_features=4096, bias=True)
  (fc1_bn): BatchNorm1d(4096, eps=1e-05, momentum=0.1, affine=True, track_running_stats=True)
  (fc2): Linear(in_features=4096, out_features=29, bias=True)
)
12
torch.Size([128, 4, 2, 2])
[1,     1] loss: 0.712, total correct: 0
training: 7986 , validation: 10648
2663
Training and Testing my model
1.2.0
Net(
  (conv1): Conv2d(4, 128, kernel_size=(2, 2), stride=(2, 2))
  (pool): MaxPool2d(kernel_size=2, stride=2, padding=0, dilation=1, ceil_mode=False)
  (conv2): Conv2d(128, 256, kernel_size=(4, 4), stride=(2, 2), padding=(1, 1))
  (conv2_bn): BatchNorm2d(256, eps=1e-05, momentum=0.1, affine=True, track_running_stats=True)
  (fc1): Linear(in_features=262144, out_features=4096, bias=True)
  (fc1_bn): BatchNorm1d(4096, eps=1e-05, momentum=0.1, affine=True, track_running_stats=True)
  (fc2): Linear(in_features=4096, out_features=29, bias=True)
)
12
torch.Size([128, 4, 2, 2])
[1,     1] loss: 0.727, total correct: 0
training: 9387 , validation: 12069
1341
Training and Testing my model
1.2.0
Net(
  (conv1): Conv2d(4, 128, kernel_size=(2, 2), stride=(2, 2))
  (pool): MaxPool2d(kernel_size=2, stride=2, padding=0, dilation=1, ceil_mode=False)
  (conv2): Conv2d(128, 256, kernel_size=(4, 4), stride=(2, 2), padding=(1, 1))
  (conv2_bn): BatchNorm2d(256, eps=1e-05, momentum=0.1, affine=True, track_running_stats=True)
  (fc1): Linear(in_features=262144, out_features=4096, bias=True)
  (fc1_bn): BatchNorm1d(4096, eps=1e-05, momentum=0.1, affine=True, track_running_stats=True)
  (fc2): Linear(in_features=4096, out_features=29, bias=True)
)
12
torch.Size([128, 4, 2, 2])
[1,     1] loss: 0.695, total correct: 0
[1,   506] loss: 0.275, total correct: 434
[1,  1011] loss: 0.206, total correct: 1239
[1,  1516] loss: 0.175, total correct: 2170
[1,  2021] loss: 0.157, total correct: 3178
[2,     1] loss: 0.091, total correct: 3
[2,   506] loss: 0.085, total correct: 1429
[2,  1011] loss: 0.083, total correct: 2851
…
[4,  1516] loss: 0.056, total correct: 5367
[4,  2021] loss: 0.055, total correct: 7143
[5,     1] loss: 0.051, total correct: 4
[5,   506] loss: 0.050, total correct: 1886
[5,  1011] loss: 0.050, total correct: 3757
[5,  1516] loss: 0.049, total correct: 5637
[5,  2021] loss: 0.049, total correct: 7524
[6,     1] loss: 0.032, total correct: 4
[6,   506] loss: 0.045, total correct: 1934
[6,  1011] loss: 0.044, total correct: 3856
[6,  1516] loss: 0.044, total correct: 5776
[6,  2021] loss: 0.044, total correct: 7690
training: 13195 , validation: 16965
1885
Training and Testing my model
1.2.0
Net(
  (conv1): Conv2d(4, 128, kernel_size=(2, 2), stride=(2, 2))
  (pool): MaxPool2d(kernel_size=2, stride=2, padding=0, dilation=1, ceil_mode=False)
  (conv2): Conv2d(128, 256, kernel_size=(4, 4), stride=(2, 2), padding=(1, 1))
  (conv2_bn): BatchNorm2d(256, eps=1e-05, momentum=0.1, affine=True, track_running_stats=True)
  (fc1): Linear(in_features=262144, out_features=4096, bias=True)
  (fc1_bn): BatchNorm1d(4096, eps=1e-05, momentum=0.1, affine=True, track_running_stats=True)
  (fc2): Linear(in_features=4096, out_features=29, bias=True)
)
12
torch.Size([128, 4, 2, 2])
[1,     1] loss: 0.690, total correct: 1
[1,   506] loss: 0.283, total correct: 2618
[2,     1] loss: 0.129, total correct: 9
[2,   506] loss: 0.106, total correct: 5536
[3,     1] loss: 0.083, total correct: 14
[3,   506] loss: 0.081, total correct: 6463
[4,     1] loss: 0.074, total correct: 16
[4,   506] loss: 0.069, total correct: 6965
…
[95,     1] loss: 0.004, total correct: 16
[95,   506] loss: 0.004, total correct: 8096
[96,     1] loss: 0.004, total correct: 16
[96,   506] loss: 0.004, total correct: 8096
[97,     1] loss: 0.004, total correct: 16
[97,   506] loss: 0.004, total correct: 8096
[98,     1] loss: 0.004, total correct: 16
[98,   506] loss: 0.004, total correct: 8096
[99,     1] loss: 0.005, total correct: 16
[99,   506] loss: 0.004, total correct: 8096
[100,     1] loss: 0.004, total correct: 16
[100,   506] loss: 0.004, total correct: 8096
training: 13195 , validation: 16965
1885
Training and Testing my model
1.2.0
Net(
  (conv1): Conv2d(4, 128, kernel_size=(2, 2), stride=(2, 2))
  (pool): MaxPool2d(kernel_size=2, stride=2, padding=0, dilation=1, ceil_mode=False)
  (conv2): Conv2d(128, 256, kernel_size=(4, 4), stride=(2, 2), padding=(1, 1))
  (conv2_bn): BatchNorm2d(256, eps=1e-05, momentum=0.1, affine=True, track_running_stats=True)
  (fc1): Linear(in_features=262144, out_features=4096, bias=True)
  (fc1_bn): BatchNorm1d(4096, eps=1e-05, momentum=0.1, affine=True, track_running_stats=True)
  (fc2): Linear(in_features=4096, out_features=29, bias=True)
)
12
torch.Size([128, 4, 2, 2])
Loading model...
training: 13195 , validation: 16965
1885
Training and Testing my model
1.2.0
Net(
  (conv1): Conv2d(4, 128, kernel_size=(2, 2), stride=(2, 2))
  (pool): MaxPool2d(kernel_size=2, stride=2, padding=0, dilation=1, ceil_mode=False)
  (conv2): Conv2d(128, 256, kernel_size=(4, 4), stride=(2, 2), padding=(1, 1))
  (conv2_bn): BatchNorm2d(256, eps=1e-05, momentum=0.1, affine=True, track_running_stats=True)
  (fc1): Linear(in_features=262144, out_features=4096, bias=True)
  (fc1_bn): BatchNorm1d(4096, eps=1e-05, momentum=0.1, affine=True, track_running_stats=True)
  (fc2): Linear(in_features=4096, out_features=29, bias=True)
)
12
torch.Size([128, 4, 2, 2])
Loading model...
training: 13195 , validation: 16965
1885
Training and Testing my model
1.2.0
Net(
  (conv1): Conv2d(4, 128, kernel_size=(2, 2), stride=(2, 2))
  (pool): MaxPool2d(kernel_size=2, stride=2, padding=0, dilation=1, ceil_mode=False)
  (conv2): Conv2d(128, 256, kernel_size=(4, 4), stride=(2, 2), padding=(1, 1))
  (conv2_bn): BatchNorm2d(256, eps=1e-05, momentum=0.1, affine=True, track_running_stats=True)
  (fc1): Linear(in_features=262144, out_features=4096, bias=True)
  (fc1_bn): BatchNorm1d(4096, eps=1e-05, momentum=0.1, affine=True, track_running_stats=True)
  (fc2): Linear(in_features=4096, out_features=29, bias=True)
)
12
torch.Size([128, 4, 2, 2])
Loading model...
Training time: 0m 0s
True label: [14, 2, 2, 9, 4, 15, 3, 2, 4, 2, 5, 5, 5, 9, 3, 15, 5, 16, 14, 17, 4, 2, 14, 5, 3, 9, 5, 5, 9, 17, 14, 5, 9, 14, 3, 2, 3, 9, 15, 5, 17, 14, 2, 14, 13, 14, 2, 5, 3, 2, 9, 16, 9, 9, 16, 17, 2, 3, 14, 9]
Pred_label: [9, 2, 2, 9, 9, 2, 9, 2, 9, 2, 2, 2, 9, 9, 4, 9, 2, 9, 9, 2, 9, 2, 9, 2, 9, 9, 2, 2, 9, 9, 9, 2, 9, 9, 9, 2, 9, 9, 2, 2, 9, 9, 2, 9, 9, 9, 2, 2, 9, 2, 9, 9, 9, 9, 9, 9, 2, 9, 9, 2]
…
