training: 13195 , validation: 16965
1885
Training and Testing my model
1.2.0
Net(
  (conv1): Conv2d(4, 128, kernel_size=(2, 2), stride=(2, 2))
  (pool): MaxPool2d(kernel_size=2, stride=2, padding=0, dilation=1, ceil_mode=False)
  (conv2): Conv2d(128, 256, kernel_size=(4, 4), stride=(2, 2), padding=(1, 1))
  (conv2_bn): BatchNorm2d(256, eps=1e-05, momentum=0.1, affine=True, track_running_stats=True)
  (fc1): Linear(in_features=262144, out_features=4096, bias=True)
  (fc1_bn): BatchNorm1d(4096, eps=1e-05, momentum=0.1, affine=True, track_running_stats=True)
  (fc2): Linear(in_features=4096, out_features=29, bias=True)
)
12
torch.Size([128, 4, 2, 2])
[1,     1] loss: 0.662, total correct: 2
training: 13195 , validation: 16965
1885
Training and Testing my model
1.2.0
Net(
  (conv1): Conv2d(4, 128, kernel_size=(2, 2), stride=(2, 2))
  (pool): MaxPool2d(kernel_size=2, stride=2, padding=0, dilation=1, ceil_mode=False)
  (conv2): Conv2d(128, 256, kernel_size=(4, 4), stride=(2, 2), padding=(1, 1))
  (conv2_bn): BatchNorm2d(256, eps=1e-05, momentum=0.1, affine=True, track_running_stats=True)
  (fc1): Linear(in_features=262144, out_features=4096, bias=True)
  (fc1_bn): BatchNorm1d(4096, eps=1e-05, momentum=0.1, affine=True, track_running_stats=True)
  (fc2): Linear(in_features=4096, out_features=29, bias=True)
)
12
torch.Size([128, 4, 2, 2])
[1,     1] loss: 0.701, total correct: 3
[2,     1] loss: 0.260, total correct: 21
[3,     1] loss: 0.174, total correct: 37
[4,     1] loss: 0.139, total correct: 36
[5,     1] loss: 0.118, total correct: 43
[6,     1] loss: 0.101, total correct: 54
[7,     1] loss: 0.095, total correct: 53
[8,     1] loss: 0.082, total correct: 56
[9,     1] loss: 0.084, total correct: 55
[10,     1] loss: 0.075, total correct: 62
[11,     1] loss: 0.072, total correct: 57
[12,     1] loss: 0.068, total correct: 57
training: 13195 , validation: 16965
1885
Training and Testing my model
1.2.0
Net(
  (conv1): Conv2d(4, 128, kernel_size=(2, 2), stride=(2, 2))
  (pool): MaxPool2d(kernel_size=2, stride=2, padding=0, dilation=1, ceil_mode=False)
  (conv2): Conv2d(128, 256, kernel_size=(4, 4), stride=(2, 2), padding=(1, 1))
  (conv2_bn): BatchNorm2d(256, eps=1e-05, momentum=0.1, affine=True, track_running_stats=True)
  (fc1): Linear(in_features=262144, out_features=4096, bias=True)
  (fc1_bn): BatchNorm1d(4096, eps=1e-05, momentum=0.1, affine=True, track_running_stats=True)
  (fc2): Linear(in_features=4096, out_features=29, bias=True)
)
12
torch.Size([128, 4, 2, 2])
[1,     1] loss: 0.713, total correct: 1
[2,     1] loss: 0.263, total correct: 27
[3,     1] loss: 0.171, total correct: 44
[4,     1] loss: 0.140, total correct: 39
[5,     1] loss: 0.117, total correct: 43
[6,     1] loss: 0.106, total correct: 45
[7,     1] loss: 0.100, total correct: 46
[8,     1] loss: 0.087, total correct: 53
…
